…
><br><span class="line">11</span><br><span class="line">12</span><br><span class="line">13</span><br><span class="line">14</span><br><span class="line">15</span><br><span class="line">16</span><br><span class="line">17</span><br><span class="line">18</span><br><span class="line">19</span><br><span class="line">20</span><br><span class="line">21</span><br><span class="line">22</span><br><span class="line">23</span><br><span class="line">24</span><br></pre></td><td class="code"><pre><span class="line">CNNnet(</span><br><span class="line">  (conv1): Sequential(</span><br><span class="line">    (0): Conv2d(1, 16, kernel_size=(3, 3), stride=(2, 2), padding=(1, 1))</span><br><span class="line">    (1): BatchNorm2d(16, eps=1e-05, momentum=0.1, affine=True, track_running_stats=True)</span><br><span class="line">    (2): ReLU()</span><br><span class="line">  )</span><br><span class="line">  (conv2): Sequential(</span><br><span class="line">    (0): Conv2d(16, 32, kernel_size=(3, 3), stride=(2, 2), padding=(1, 1))</span><br><span class="line">    (1): BatchNorm2d(32, eps=1e-05, momentum=0.1, affine=True, track_running_stats=True)</span><br><span class="line">    (2): ReLU()</span><br><span class="line">  )</span><br><span class="line">  (conv3): Sequential(</span><br><span class="line">    (0): Conv2d(32, 64, kernel_size=(3, 3), stride=(2, 2), padding=(1, 1))</span><br><span class="line">    (1): BatchNorm2d(64, eps=1e-05, momentum=0.1, affine=True, track_running_stats=True)</span><br><span class="line">    (2): ReLU()</span><br><span class="line">  )</span><br><span class="line">  (conv4): Sequential(</span><br><span class="line">    (0): Conv2d(64, 64, kernel_size=(2, 2), stride=(2, 2))</span><br><span class="line">    (1): BatchNorm2d(64, eps=1e-05, momentum=0.1, affine=True, track_running_stats=True)</span><br><span class="line">    (2): ReLU()</span><br><span class="line">  )</span><br><span class="line">  (fc1): Linear(in_features=256, out_features=100, bias=True)</span><br><span class="line">  (fc2): Linear(in_features=100, out_features=10, bias=True)</span><br><span class="line">)</span><br></pre></td></tr></table></figure><h3 id="使用类似-‘model-layer’-的方式打印指定的层"><a href="#使用类似-‘model-layer’-的方式打印指定的层" class="headerlink" title="使用类似 ‘model.layer’ 的方式打印指定的层"></a>使用类似 ‘model.layer’ 的方式打印指定的层</h3><p>会输出对应层的结构</p><figure class="highlight python"><table><tr><td class="gutter"><pre><span class="line">1</span><br></pre></td><td class="code"><pre><span class="line"><span class="built_in">print</span>(model.conv2)</span><br></pre></td></tr></table></figure><figure class="highlight plaintext"><table><tr><td class="gutter"><pre><span class="line">1</span><br><span class="line">2</span><br><span class="line">3</span><br><span class="line">4</span><br><span class="line">5</span><br></pre></td><td class="code"><pre><span class="line">Sequential(</span><br><span class="line">  (0): Conv2d(16, 32, kernel_size=(3, 3), stride=(2, 2), padding=(1, 1))</span><br><span class="line">  (1): BatchNorm2d(32, eps=1e-05, momentum=0.1, affine=True, track_running_stats=True)</span><br><span class="line">  (2): ReLU()</span><br><span class="line">)</span><br></pre></td></tr></table></figure><h3 id="使用-modules-方法打印字典形式的结构"><a href="#使用-modules-方法打印字典形式的结构" class="headerlink" title="使用 ._modules 方法打印字典形式的结构"></a>使用 ._modules 方法打印字典形式的结构</h3><figure class="highlight python"><table><tr><td class="gutter"><
…
lass="line">7</span><br><span class="line">8</span><br><span class="line">9</span><br><span class="line">10</span><br><span class="line">11</span><br><span class="line">12</span><br><span class="line">13</span><br><span class="line">14</span><br><span class="line">15</span><br><span class="line">16</span><br><span class="line">17</span><br><span class="line">18</span><br><span class="line">19</span><br><span class="line">20</span><br><span class="line">21</span><br></pre></td><td class="code"><pre><span class="line">OrderedDict([(&#x27;conv1&#x27;, Sequential(</span><br><span class="line">  (0): Conv2d(1, 16, kernel_size=(3, 3), stride=(2, 2), padding=(1, 1))</span><br><span class="line">  (1): BatchNorm2d(16, eps=1e-05, momentum=0.1, affine=True, track_running_stats=True)</span><br><span class="line">  (2): ReLU()</span><br><span class="line">)), (&#x27;conv2&#x27;, Sequential(</span><br><span class="line">  (0): Conv2d(16, 32, kernel_size=(3, 3), stride=(2, 2), padding=(1, 1))</span><br><span class="line">  (1): BatchNorm2d(32, eps=1e-05, momentum=0.1, affine=True, track_running_stats=True)</span><br><span class="line">  (2): ReLU()</span><br><span class="line">)), (&#x27;conv3&#x27;, Sequential(</span><br><span class="line">  (0): Conv2d(32, 64, kernel_size=(3, 3), stride=(2, 2), padding=(1, 1))</span><br><span class="line">  (1): BatchNorm2d(64, eps=1e-05, momentum=0.1, affine=True, track_running_stats=True)</span><br><span class="line">  (2): ReLU()</span><br><span class="line">)), (&#x27;conv4&#x27;, Sequential(</span><br><span class="line">  (0): Conv2d(64, 64, kernel_size=(2, 2), stride=(2, 2))</span><br><span class="line">  (1): BatchNorm2d(64, eps=1e-05, momentum=0.1, affine=True, track_running_stats=True)</span><br><span class="line">  (2): ReLU()</span><br><span class="line">)), (&#x27;fc1&#x27;, Linear(in_features=256, out_features=100, bias=True)), (&#x27;fc2&#x27;, Linear(in_features=100, out_features=10, bias=True))])</span><br><span class="line"></span><br><span class="line"></span><br><span class="line"></span><br><span clas
…
