…
><br><span class="line">11</span><br><span class="line">12</span><br><span class="line">13</span><br><span class="line">14</span><br><span class="line">15</span><br><span class="line">16</span><br><span class="line">17</span><br><span class="line">18</span><br><span class="line">19</span><br><span class="line">20</span><br><span class="line">21</span><br><span class="line">22</span><br><span class="line">23</span><br><span class="line">24</span><br></pre></td><td class="code"><pre><span class="line">CNNnet(</span><br><span class="line">  (conv1): Sequential(</span><br><span class="line">    (0): Conv2d(1, 16, kernel_size=(3, 3), stride=(2, 2), padding=(1, 1))</span><br><span class="line">    (1): BatchNorm2d(16, eps=1e-05, momentum=0.1, affine=True, track_running_stats=True)</span><br><span class="line">    (2): ReLU()</span><br><span class="line">  )</span><br><span class="line">  (conv2): Sequential(</span><br><span class="line">    (0): Conv2d(16, 32, kernel_size=(3, 3), stride=(2, 2), padding=(1, 1))</span><br><span class="line">    (1): BatchNorm2d(32, eps=1e-05, momentum=0.1, affine=True, track_running_stats=True)</span><br><span class="line">    (2): ReLU()</span><br><span class="line">  )</span><br><span class="line">  (conv3): Sequential(</span><br><span class="line">    (0): Conv2d(32, 64, kernel_size=(3, 3), stride=(2, 2), padding=(1, 1))</span><br><span class="line">    (1): BatchNorm2d(64, eps=1e-05, momentum=0.1, affine=True, track_running_stats=True)</span><br><span class="line">    (2): ReLU()</span><br><span class="line">  )</span><br><span class="line">  (conv4): Sequential(</span><br><span class="line">    (0): Conv2d(64, 64, kernel_size=(2, 2), stride=(2, 2))</span><br><span class="line">    (1): BatchNorm2d(64, eps=1e-05, momentum=0.1, affine=True, track_running_stats=True)</span><br><span class="line">    (2): ReLU()</span><br><span class="line">  )</span><br><span class="line">  (fc1): Linear(in_features=256, out_features=100, bias=True)</span><br><span class="line">  (fc2): Linear(in_features=100, out_features=10, bias=True)</span><br><span class="line">)</span><br></pre></td></tr></table></figure><h3 id="&#x4F7F;&#x7528;&#x7C7B;&#x4F3C;-&#x2018;model-layer&#x2019;-&#x7684;&#x65B9;&#x5F0F;&#x6253;&#x5370;&#x6307;&#x5B9A;&#x7684;&#x5C42;"><a href="#&#x4F7F;&#x7528;&#x7C7B;&#x4F3C;-&#x2018;model-layer&#x2019;-&#x7684;&#x65B9;&#x5F0F;&#x6253;&#x5370;&#x6307;&#x5B9A;&#x7684;&#x
…
lass="line">7</span><br><span class="line">8</span><br><span class="line">9</span><br><span class="line">10</span><br><span class="line">11</span><br><span class="line">12</span><br><span class="line">13</span><br><span class="line">14</span><br><span class="line">15</span><br><span class="line">16</span><br><span class="line">17</span><br><span class="line">18</span><br><span class="line">19</span><br><span class="line">20</span><br><span class="line">21</span><br></pre></td><td class="code"><pre><span class="line">OrderedDict([(&apos;conv1&apos;, Sequential(</span><br><span class="line">  (0): Conv2d(1, 16, kernel_size=(3, 3), stride=(2, 2), padding=(1, 1))</span><br><span class="line">  (1): BatchNorm2d(16, eps=1e-05, momentum=0.1, affine=True, track_running_stats=True)</span><br><span class="line">  (2): ReLU()</span><br><span class="line">)), (&apos;conv2&apos;, Sequential(</span><br><span class="line">  (0): Conv2d(16, 32, kernel_size=(3, 3), stride=(2, 2), padding=(1, 1))</span><br><span class="line">  (1): BatchNorm2d(32, eps=1e-05, momentum=0.1, affine=True, track_running_stats=True)</span><br><span class="line">  (2): ReLU()</span><br><span class="line">)), (&apos;conv3&apos;, Sequential(</span><br><span class="line">  (0): Conv2d(32, 64, kernel_size=(3, 3), stride=(2, 2), padding=(1, 1))</span><br><span class="line">  (1): BatchNorm2d(64, eps=1e-05, momentum=0.1, affine=True, track_running_stats=True)</span><br><span class="line">  (2): ReLU()</span><br><span class="line">)), (&apos;conv4&apos;, Sequential(</span><br><span class="line">  (0): Conv2d(64, 64, kernel_size=(2, 2), stride=(2, 2))</span><br><span class="line">  (1): BatchNorm2d(64, eps=1e-05, momentum=0.1, affine=True, track_running_stats=True)</span><br><span class="line">  (2): ReLU()</span><br><span class="line">)), (&apos;fc1&apos;, Linear(in_features=256, out_features=100, bias=True)), (&apos;fc2&apos;, Linear(in_features=100, out_features=10, bias=True))])</span><br><span class="line"></span><br><span class="line"></span><br><span class="line"></span><br><span clas
…
